# Ultralytics ðŸš€ AGPL-3.0 License - https://ultralytics.com/license

# Parameters
nc: 80 # number of classes
depth_multiple: 0.33 # model depth multiple
width_multiple: 0.50 # layer channel multiple
anchors:
  - [10, 13, 16, 30, 33, 23] # P3/8
  - [30, 61, 62, 45, 59, 119] # P4/16
  - [116, 90, 156, 198, 373, 326] # P5/32

# YOLOv5 v6.0 backbone with Ghost and CA
backbone:
  # [from, number, module, args]
  [
    [-1, 1, GhostConv, [64, 6, 2, 2]], # 0-P1/2
    [-1, 1, GhostConv, [128, 3, 2]], # 1-P2/4
    [-1, 3, C3Ghost, [128]], # 2
    [-1, 1, GhostConv, [256, 3, 2]], # 3-P3/8
    [-1, 6, C3Ghost, [256]], # 4
    [-1, 1, CoordAtt, [256]], # 5 <--- æ·»åŠ CA, å¤„ç†256é€šé“
    [-1, 1, GhostConv, [512, 3, 2]], # 6-P4/16
    [-1, 9, C3Ghost, [512]], # 7
    [-1, 1, CoordAtt, [512]], # 8 <--- æ·»åŠ CA, å¤„ç†512é€šé“
    [-1, 1, GhostConv, [1024, 3, 2]], # 9-P5/32
    [-1, 3, C3Ghost, [1024]], # 10
    [-1, 1, SPPF, [1024, 5]], # 11
    [-1, 1, CoordAtt, [1024]], # 12 <--- æ·»åŠ CA, å¤„ç†1024é€šé“
  ]

# YOLOv5 v6.0 head with CA
head: [
    [-1, 1, Conv, [512, 1, 1]], # 13
    [-1, 1, nn.Upsample, [None, 2, "nearest"]], # 14
    [[-1, 8], 1, Concat, [1]], # 15 cat backbone P4 (layer 8)
    [-1, 1, CoordAtt, [1024]], # 16 <--- æ·»åŠ CA, ConcatåŽé€šé“æ•°ä¸º 512+512=1024
    [-1, 3, C3, [512, False]], # 17

    [-1, 1, Conv, [256, 1, 1]], # 18
    [-1, 1, nn.Upsample, [None, 2, "nearest"]], # 19
    [[-1, 5], 1, Concat, [1]], # 20 cat backbone P3 (layer 5)
    [-1, 1, CoordAtt, [512]], # 21 <--- æ·»åŠ CA, ConcatåŽé€šé“æ•°ä¸º 256+256=512
    [-1, 3, C3, [256, False]], # 22 (P3/8-small)

    [-1, 1, Conv, [256, 3, 2]], # 23
    [[-1, 18], 1, Concat, [1]], # 24 cat head P4 (layer 18)
    [-1, 1, CoordAtt, [512]], # 25 <--- æ·»åŠ CA, ConcatåŽé€šé“æ•°ä¸º 256+256=512
    [-1, 3, C3, [512, False]], # 26 (P4/16-medium)

    [-1, 1, Conv, [512, 3, 2]], # 27
    [[-1, 13], 1, Concat, [1]], # 28 cat head P5 (layer 13)
    [-1, 1, CoordAtt, [1024]], # 29 <--- æ·»åŠ CA, ConcatåŽé€šé“æ•°ä¸º 512+512=1024
    [-1, 3, C3, [1024, False]], # 30 (P5/32-large)

    [[22, 26, 30], 1, Detect, [nc, anchors]], # Detect(P3, P4, P5)
  ]
